model/best_model.pt (torch, 287194 bytes, 117 tensors)

feature_extractor.layers.0.gin.nn.0.weight f4 [64, 8]
00000000: 6ca2 ddbe 8034 30bf c0a6 d0bf 35f0 d33d
00000010: 8bff 083e 324a fcbe d254 68be 7cfc 2740
00000020: ac32 9dc0 ee21 1dc1 8c4d 2fc0 0918 86c0
00000030: 5140 0abf 649a 3fbf 1a08 913e cf55 82bf
00000040: 6130 de3c ea46 95be 5f03 b4bf 2a4e ae40
00000050: e063 493e 642f 853f 0038 803d e7d7 8ec1
00000060: 3439 973e 98e7 883e efee 13be db48 1c3e
00000070: 2b49 393e 9c60 fc3d 75ee b93e b9ba 18bf
00000080: 1150 263d e004 a73e a5de 153f 72c9 c83d
00000090: 93f5 3bbf 4bf1 74bc 1bb8 e6bd 9633 3d3e
000000a0: 1339 8e40 9201 88bf 7e11 dc41 33a6 50be
000000b0: 667d 7fbc d1bb be3e 9d42 a4be a3ea 9ec0
000000c0: 715d 7dbf b6f0 4240 8521 95c1 0d90 f63c
000000d0: ac64 af3d 4fcf 763f b779 58bf a544 3cc1
000000e0: 9b66 0fc0 2ca5 86bf f76a b4c0 629f 08bf
000000f0: 0de3 033e 39d9 1ebf c9b7 e2be d88f 0b40
00000100: 00bf 4a3f 0a26 703f b98f 5040 f87b 503f
00000110: 8c17 56bf b4ed 43be 7050 9fbe c032 f640
00000120: 4611 5d40 83ef 933f 2fba 7ec1 bd35 23be
00000130: 71c3 0a3d 8aeb 193d 12e6 18bf 3a49 51bf
00000140: c069 0a41 d68d 683f a1d6 123e f95d 5d40
00000150: 6f2f 5bbf ce18 d83c 6547 0d40 c266 7fc1
00000160: 454f a040 9d07 983e 6be4 e240 8518 81bf
00000170: e94b 0ebf 1911 7a3e d19e 62bf ff17 f240
00000180: b264 7241 0a81 5340 7d5d df3d 8e3f a040
00000190: 47be 123f 2bf2 923e 366f 0fbf 4df0 8a3e
000001a0: 5eb1 c1c1 3079 34c0 3ff4 05c1 f6b4 9f3e
000001b0: 7368 4abd 9e7b d0bd 62c0 de3c 006e cbc0
000001c0: 7eb9 5040 dc2b 7340 5055 82c0 7a86 2d3f
000001d0: 6939 8f3e 9ea9 b33f c5d0 edbf e5a3 0dc0
000001e0: 0367 81bf 5d1b d8be 08d2 ec3f 0139 abbc
000001f0: 750e 84be f96d 253e 47f4 6c3e 39ff 57c0
00000200: 5dce 1b3f 6af6 11bf 908e 2e3e 4422 81be
00000210: b78c acbe 4b9e 36bf a0a3 14be 3d70 1d40
00000220: 46e0 693f 7262 fabd 9109 0c3f 647f 29bf
00000230: 9f74 a63e 9b06 92bc 718e 2f3f 0f2b 8340
00000240: c4d6 d73e 4830 d03e b667 d83e 4df9 14bf
00000250: cb8a 83be 3442 7e3e 5e5a 7cbc 2b36 1740
00000260: 598a 28bf 6b0e 8c3f be3e 1f40 119a da3e
00000270: ab8a 24bf db48 983e 095c a73e 6ab6 9dc0
00000280: 753a 88c0 4741 97c0 3a87 3b40 ed2c 8cc0
00000290: 72c7 6bbf 098a 71bf 0c5a 91bd bf1e 32c1
000002a0: 40e0 cbc0 06f9 b940 f9a9 a23f 5112 823e
000002b0: e551 75be ddfc ac3f 9def bfbf aaad 1340
000002c0: e0b5 1441 3d68 9c3f b5d5 cf40 cacb 9abf
000002d0: c476 e03d 52f1 2e3e b152 b1bf 24e5 8bc0
000002e0: f1c3 a540 ac4b 39c0 efdf 1840 b2dc 6cc0
000002f0: f792 4f3d 6751 20bf 5f70 4640 a2d9 8241
00000300: 96d0 d1be 338f 17bf cf39 d83d 5080 14be
00000310: 932e f93c e7e3 81be 57f2 7abe d234 c7bf
00000320: 7b13 1bbd 136d 63bc e4a9 04be 18df 9abe
00000330: 4ad9 ab3d 7f8e ef3d 5a2f c63e 5366 4dbf
00000340: fb08 2ac0 9197 be40 fab6 fcc0 227e a2bf
00000350: c5a3 393e 0db1 203f 8dba 9ebf c088 4340
00000360: b403 d73e da8e cfbe b5da 0c3f 135d e2bc
00000370: 94e5 fd3c 1dd1 7fbc afff 5a3c 9491 a142
00000380: 63c6 0ec1 9ce2 83bf 87c6 b840 d9fe acc0
00000390: df79 d23e f890 9a3f 6853 7dbd a60c edc0
000003a0: f7b6 0dc0 6eef afbe bae2 0b3f e236 403e
000003b0: 1560 0ebd 05a6 923e ac2b 673e ff1c abbf
000003c0: 5a4f 09c0 69a0 c23f ffbd d440 4791 f040
000003d0: 20f6 59bf eebf f2be 425e 133f 4ef8 af3f
000003e0: f0f5 d3c0 2e4a 39c0 281c cdbd 86ce 3340
000003f0: 1885 1bbf dc51 12be 0be8 02bf d707 2041
-0.4328798 -0.6883011 -1.6300888 0.1034855 0.13378732 -0.49275357 -0.22688606 2.6247854
-4.9124355 -9.820784 -2.739108 -4.190434 -0.5400439 -0.74844956 0.28326494 -1.0182437
0.027122678 -0.29155666 -1.4063529 5.4470415 0.19667006 1.0405087 0.06260681 -17.855421
0.2953583 0.26739192 -0.14446615 0.15262167 0.18094318 0.12323114 0.3631474 -0.59659916
0.0406037 0.32620907 0.58542854 0.09804048 -0.7342159 -0.014950107 -0.11265584 0.1847671
4.444467 -1.0625479 27.508541 -0.203759 -0.015593862 0.37252668 -0.32082072 -4.966142
-0.98970705 3.0459418 -18.641367 0.030097986 0.085641235 0.9641008 -0.8456072 -11.766759
-2.2406375 -1.0519156 -5.638057 -0.533682 0.12879582 -0.62050205 -0.44280842 2.1806545
0.7919769 0.93808043 3.2587721 0.8143916 -0.8362968 -0.19133645 -0.31116056 7.693695
3.4541793 1.1557468 -15.920455 -0.15938468 0.033877794 0.037578143 -0.5972606 -0.8175236
8.650818 0.90841424 0.14339687 3.4588606 -0.8561925 0.026379015 2.2074826 -15.962587
5.0096765 0.29693308 7.090383 -1.0085608 -0.5558458 0.24420585 -0.88523585 7.565429
15.149584 3.304751 0.10906503 5.007758 0.5732159 0.28700384 -0.5602907 0.2713646
-24.211605 -2.8198967 -8.37213 0.3119275 -0.049416017 -0.10179828 0.027191345 -6.3571777
3.2613215 3.799552 -4.072914 0.6778332 0.27973488 1.4036138 -1.8579336 -2.2131283
-1.0109562 -0.42208377 1.8501596 -0.020901205 -0.2579228 0.16155232 0.2314006 -3.3749526
0.6086176 -0.57016623 0.17046571 -0.25221455 -0.33701107 -0.71335286 -0.14515543 2.4599755
0.9135784 -0.12225808 0.547021 -0.6621001 0.3251085 -0.017825415 0.68576723 4.099006
0.4215604 0.40661836 0.42266625 -0.581929 -0.25691828 0.24829942 -0.015402405 2.3626812
-0.658361 1.09419 2.4882045 0.42695668 -0.6427409 0.29743084 0.32687405 -4.9285173
-4.257136 -4.7267184 2.9301286 -4.380484 -0.92101204 -0.9435125 -0.07097253 -11.132506
-6.3711243 5.8116484 1.2708122 0.254046 -0.23957022 1.3514668 -1.4994999 2.3074746
9.294403 1.2219311 6.4948373 -1.2093441 0.10960153 0.17084244 -1.385336 -4.3717213
5.1801686 -2.8952436 2.3886678 -3.7009702 0.050677266 -0.6262421 3.1006086 16.356266
-0.4097945 -0.5920288 0.10557901 -0.14502072 0.030417716 -0.25369188 -0.24506508 -1.5562994
-0.037860375 -0.013880986 -0.12955433 -0.30248332 0.08391054 0.11697101 0.38708 -0.8023426
-2.6567981 5.9560018 -7.897336 -1.2694743 0.1812888 0.6277016 -1.2400681 3.0552216
0.41995013 -0.40538675 0.5502122 -0.027632272 0.03099326 -0.015613821 0.013366624 80.78433
-8.923434 -1.0303531 5.7742343 -5.4061093 0.41108605 1.2075491 -0.06184712 -7.407794
-2.2142923 -0.34362358 0.5464283 0.18770936 -0.0347596 0.28642288 0.22575253 -1.3368224
-2.1454682 1.5205203 6.648193 7.517734 -0.8514118 -0.47412056 0.575657 1.3747652
-6.6237717 -2.8951526 -0.10015136 2.8094802 -0.6074996 -0.1428904 -0.5113532 10.001914

feature_extractor.layers.0.gin.nn.0.bias f4 [64]
00000000: 8b46 743c 0d72 85bc d0e2 0bbd 100c eb39
00000010: 87fd 2739 7774 bcbd ac2c 95bd 7774 dd3c
00000020: 298a 6b38 5fed b2bc bb4d 02bc 5509 6c3b
00000030: 9329 143d 14ad 85bc 5d25 59bd 9a49 f1b9
00000040: 34cc 1639 af6a e63a 30cc 313a c362 b7bc
00000050: 79ce 043d 4bbd 52bd b422 a53c ffb8 103b
00000060: c6fd c9b9 896b 4739 cbb6 a53c 94e5 a7bd
00000070: 487e f33c 408d fe3a 5adf 6d3c 5c36 30bd
00000080: 769b 63bb c516 05ba 4b1c 6b3c 1300 243b
00000090: 3f08 81bb 369b 1cbd f0da b63c e22f a13d
000000a0: 056b 5f3c a866 9dba 31b4 d6bc 28ab d8bc
000000b0: 27fc f1bb 6244 19be 82a9 0c3a 27fe 833a
000000c0: 252e 0d3d ad1f e13b 40b1 cd39 743a 523b
000000d0: cbc5 343d 2a5d 36bc f283 143c 7ab7 9f3c
000000e0: a134 0fbe 6923 953c 4f01 6c3d 1aee 8e39
000000f0: a022 f9bc 9d22 873d 1b76 afba dabc 793b
0.014909397 -0.016289735 -0.034151852 0.0004483168 0.00016020807 -0.092019014 -0.07283911 0.027033074
5.6157038e-05 -0.021841703 -0.007953103 0.0036016305 0.03617246 -0.016317882 -0.053014148 -0.0004602194
0.00014381186 0.0017579402 0.00067824405 -0.02238596 0.03242347 -0.051450055 0.02015815 0.0022082923
-0.00038526783 0.00019018179 0.020228764 -0.081980854 0.029723302 0.0019420758 0.014518583 -0.04302059
-0.0034730113 -0.000507694 0.014350007 0.0025024458 -0.0039377506 -0.03823396 0.022321194 0.07870461
0.013636355 -0.0012008743 -0.026208969 -0.026448801 -0.007384795 -0.14967492 0.0005365835 0.001007025
0.034467835 0.006870231 0.00039232709 0.0032078298 0.044133943 -0.0111306105 0.009064661 0.019496668
-0.1398492 0.018205361 0.057618435 0.0002726175 -0.030412018 0.06598399 -0.0013386639 0.003810695

feature_extractor.layers.0.gin.nn.1.weight f4 [64]
00000000: 5fb8 d6bc 42c6 a73f 4fbf ab3f 3899 673d
00000010: f89a c23a 0842 2240 9fdf 3140 a03b 203f
00000020: e885 9a3e de15 0f40 6b7d 4d3f 79fc c43c
00000030: 66b9 cd3f 7326 1d40 7b4b ec3f c40e 553d
00000040: 8b47 f93e 9fa5 d83c e281 073e 8588 adbc
00000050: 5ac5 813f 2901 3b40 f7d7 2740 b408 b23f
00000060: 559c a83e b741 973d ea61 2840 c63f 2540
00000070: 3cc5 c83f ef12 2d3d b0f6 2a40 9005 9b3f
00000080: 5a3b fb3e 7958 aa3e 8422 a53f 828c da3f
00000090: f267 0340 e664 f43f 30cb 0340 a8d1 0f40
000000a0: 36dc 8a3f 9433 cb3e 2d9e fc3f 1371 b03f
000000b0: a02f de3f 74ed 9a40 21fb 7e3e 7815 833e
000000c0: 7d0d 1a40 254b d73f 9df2 f13d bfbb 243f
000000d0: b05c 2d40 4427 2940 5449 da3f 50b1 0540
000000e0: b406 4b40 5d3e b83f 2549 e63f e4d7 81bd
000000f0: 0974 0440 678b 4f3f 5533 6c3c 74a5 5340
-0.026210962 1.3107378 1.3417758 0.056542605 0.001484721 2.5352802 2.7792737 0.6259098
0.30180287 2.2357097 0.802695 0.02404617 1.6072204 2.4554718 1.8460535 0.052016035
0.48687395 0.026446162 0.1323314 -0.021183262 1.0138352 2.9219458 2.6225564 1.3908906
0.32931772 0.07385581 2.6309762 2.5820174 1.5685191 0.042254385 2.6713066 1.2111073
0.4906872 0.33270624 1.2901158 1.707413 2.0532193 1.9093292 2.0592766 2.2471714
1.0848453 0.39687788 1.9735771 1.3784508 1.7358284 4.841486 0.24900486 0.25602317
2.4070733 1.6819807 0.11813853 0.6434898 2.7087822 2.6430216 1.7053628 2.0889473
3.1722841 1.4394032 1.7991072 -0.06340006 2.0695822 0.81072086 0.014416535 3.3069735

feature_extractor.layers.0.gin.nn.1.bias f4 [64]
00000000: 81ce 5ebf 3790 0dc0 55e4 84bf 70c9 6ebf
00000010: c0e5 04bf 6784 bbbf 43d5 73bd 825b 9dbf
00000020: 181c 32bf c0bb 7bbf 231e 41c0 c697 75be
00000030: 2e02 a0bf e23b 8bbe c53a 04bf 3717 09bf
00000040: 899b 6abf f994 8abf 01e7 81bf dea9 c2be
00000050: 5d84 b33d df9c 93bf 1036 68bf 1ae0 a5bf
00000060: f49e f8be 78c5 4fbf 6ff3 60bf 29b6 083f
00000070: 86a5 363e bc06 10bf a7d6 b1bf 94e1 2fbf
00000080: b360 00bf 8717 29bf 0223 1a3f 4594 46bf
00000090: 3ae2 bfbe 094d d2bf 1103 77bf 849f 33bf
000000a0: fe84 403f a5b7 5ebf e7b5 6cbf f848 17be
000000b0: 1cc5 ffbf d332 61c0 e9ad a9bf b273 4cbf
000000c0: a8e9 9cbf f7fb b5be b4fe abbf 8ac5 11c0
000000d0: 3d11 e2bf 53ff 92bf d39d 84be 9aec 92be
000000e0: 5e1d 24c0 7a5d 21c0 19cc b2bf 8a1f 39bf
000000f0: cd07 66bf d129 36bf 74ea 29be 2790 4abf
-0.8703385 -2.2119272 -1.0382181 -0.9327612 -0.5191307 -1.4649781 -0.059529554 -1.2293551
-0.6957412 -0.9833336 -3.0174644 -0.23983678 -1.2500665 -0.27194124 -0.51652175 -0.5355105
-0.9164358 -1.0826713 -1.0148622 -0.38020223 0.08765481 -1.1532248 -0.9070749 -1.2959015
-0.48558772 -0.8116069 -0.8787145 0.53402954 0.1783658 -0.56260276 -1.3893632 -0.6870358
-0.5014755 -0.66051525 0.6020967 -0.7756999 -0.37477285 -1.6429759 -0.96489054 -0.70165277
0.7520293 -0.8699897 -0.9246506 -0.14773929 -1.9982028 -3.518727 -1.3256198 -0.7986404
-1.2258806 -0.35543796 -1.3437104 -2.2776818 -1.7661511 -1.1484169 -0.2590166 -0.28696138
-2.5642924 -2.5213304 -1.3968536 -0.7231375 -0.89855653 -0.71157557 -0.16593343 -0.7912621

feature_extractor.layers.0.gin.nn.1.running_mean f4 [64]
00000000: c2a0 aac2 a378 4fc2 8800 eec1 26a4 8042
00000010: f4c0 12c2 fb01 d242 640f 95c2 959f 09c3
00000020: 4be0 91c2 7df4 dac2 b9ab 5743 7d23 fac1
00000030: d404 8cc2 1bce 2cc3 df7c acc2 0123 0b42
00000040: 376b b5c2 e3b4 f942 17df 0f42 e6d4 4b42
00000050: 093a b3c2 43c2 43c2 461d 9fc2 cdc5 eb43
00000060: bcc9 70c2 445d 8d42 dcf5 73c2 d202 d142
00000070: 7141 4c43 728b 2642 1eb9 02c3 f56e 43c3
00000080: 1d2c f842 2ff7 8fc2 6ba3 9943 bcf1 31c3
00000090: db9e 30c3 0577 03c3 e9f0 33c3 b83e 01c3
000000a0: 9034 b541 080c 1bc3 8ef7 9dc2 6b6b 8c40
000000b0: e7b6 2dc3 724b 5ac3 125d e8c1 f8f2 21c3
000000c0: 863e 1ec3 e8bd 3fc1 33c6 5b43 81a8 9442
000000d0: d11d 75c2 93ca 65c3 9975 3e42 2e34 0dc3
000000e0: cd36 12c3 fedc 2a43 ad9e 3143 ec15 c642
000000f0: a0c2 47c2 1e0b 14c1 f04f 8842 50a3 9441
-85.31398 -51.86781 -29.75026 64.3206 -36.68843 105.00387 -74.53006 -137.62337
-72.93807 -109.477516 215.67079 -31.267328 -70.00943 -172.8051 -86.24389 34.784184
-90.709404 124.853294 35.96786 50.95791 -89.61335 -48.93971 -79.557175 471.54532
-60.197006 70.68216 -60.990097 104.50551 204.25563 41.636177 -130.72311 -195.43343
124.08616 -71.98278 307.2767 -177.94427 -176.62053 -131.46492 -179.94106 -129.245
22.650665 -155.047 -78.983505 4.3881125 -173.71446 -218.29471 -29.045444 -161.9491
-158.24423 -11.983864 219.77422 74.32911 -61.279118 -229.7913 47.61484 -141.20383
-146.21407 170.86325 177.61983 99.042816 -49.940063 -9.252714 68.15613 18.579742

feature_extractor.layers.0.gin.nn.1.running_var f4 [64]
00000000: 7e04 7346 509f b546 5bd5 0c47 00f4 ef45
00000010: 3d7f e845 bc6b 9545 b0c0 8546 7bd7 fd46
00000020: 52b6 6d46 0eb2 5446 eff2 1d48 87a9 d446
00000030: 2101 e546 bab2 fb45 0f93 5347 be7a 9e45
00000040: f49d 9646 175d 9946 8d64 8545 cb93 7d46
00000050: dfa8 2a47 6ab7 3547 a1c4 5447 0461 9148
00000060: d302 d945 c8f5 0146 104b e146 cff3 8d44
00000070: 8576 6c47 a321 cb45 fcac d846 04e1 d146
00000080: 6921 7447 3458 3046 04d1 0848 a056 5946
00000090: c0de a847 1b67 a247 309c 4d47 15d6 f146
000000a0: 2f6e c544 c534 7847 021a a246 cdb0 2747
000000b0: 8bb7 d047 b980 8846 1433 8645 4697 3a47
000000c0: b0f3 ce46 6233 3b47 9502 7847 dc10 a047
000000d0: 58ff 8147 8a07 ac47 4a16 6445 6fee 9247
000000e0: a71e af45 ca83 c747 29da 2b47 c5e8 8b46
000000f0: a86d 6146 8a2d 8d47 ce09 4846 718d 8647
15553.123 23247.656 36053.355 7678.5 7439.905 4781.467 17120.344 32491.74
15213.58 13612.514 161739.73 27220.764 29312.564 8054.341 54163.06 5071.343
19278.977 19630.545 4268.569 16228.948 43688.87 46519.414 54468.63 297736.12
6944.353 8317.445 28837.531 1135.619 60534.52 6500.2046 27734.492 26864.508
62497.41 11286.051 140100.06 13909.656 86461.5 83150.21 52636.188 30955.041
1579.4432 63540.77 20749.004 42928.8 106863.086 17472.361 4294.385 47767.273
26489.844 47923.383 63490.582 81953.72 66558.69 88079.08 3649.393 75228.87
5603.8315 102151.58 43994.16 17908.385 14427.414 72283.08 12802.451 68890.88

feature_extractor.layers.0.gin.nn.3.weight f4 [64, 64]
00000000: fc51 16bf cf2a be3e 49db 66c0 df3f 29bd
00000010: 0632 ecbd 2455 0b40 1579 f5bf 7513 313f
00000020: 837e 2ebf 7b65 fec0 7f32 febf 5f2e ce3e
00000030: 157b d33f a174 a5c0 a6a9 2a3f 81b1 d2bd
00000040: 54b7 d1be 4099 663e a9b9 c0bd 908b dfbe
00000050: 6c3f ec3e 21bd 0cbf 4980 643f e812 58bf
00000060: f398 32be 2e40 17bb 4d06 a5bf d79c 8ebf
00000070: 6828 4d3f 6162 abbe 7f2a b83e e9a8 afbe
00000080: bd66 0f3f 67f2 3dbe 6393 533f a506 46c0
00000090: f44f b33f 7fd3 023d a6f8 88c0 0f87 07c0
000000a0: 7dd3 04bf 3ca4 2dbf 6887 163e 609a cfbf
000000b0: 4ab4 3bbf a285 0dc1 a078 c2bd 64ed 963e
000000c0: fcb0 05c1 fb1e 3840 f99f 55be 29e2 debe
000000d0: 62f3 853f 94d3 9bbf 14c9 333f b538 71c0
000000e0: 8d77 87c0 4e32 e23e 1009 553f 8096 6b3d
000000f0: fff4 aabe b900 ddbf 8ba2 703e 762a a83f
00000100: 651e af3d 84cc ac3e 0a62 f6bf 3ee4 24bf
00000110: 3f7b 3a3e 6f8d fbc0 eb8d 3b40 a398 803e
00000120: 3e93 9b3e 977a 9f3f 653c f9be 637f f9be
00000130: 1c50 e8be 8861 fc3f 1069 d83c b093 65be
00000140: 171d 4dbe 25c3 55be 2a07 e13e 30dd 82be
00000150: c0cf 143f 0395 6c3e 7b2c 553d 4357 7cc0
00000160: f0a3 44be 7e49 95be 1191 f83f 0786 d43e
00000170: 3d62 683f 1859 8cbe 7849 3fbe dbf9 213e
00000180: 1d5c 5c3d 2a8d b4bb 26ea df3c 5223 06bf
00000190: 34e7 c1bf f106 05c0 4a5d d73c 2c44 3b3f
000001a0: 35a3 89be 80ed 083e 2c06 bbbe bd48 debf
000001b0: 9ae7 03c0 8b6a 8dbf d671 afbd 9699 58be
000001c0: b53d 0740 6a50 0dc0 1a67 a83d 01dd afbe
000001d0: 7298 c9bf b5de be3f 78be 673d 28e5 433f
000001e0: b4bd 6a40 ff99 9f3f 6185 cdbf 4e50 95bf
000001f0: 1726 563f 4b02 d83f d25c 0ebf c3a8 6d3e
00000200: 6c33 0c3e 9d5b 023d 8082 5b3d b299 a3bd
00000210: 7223 8ebd 5d76 babd 6555 92be 9f9c 833e
00000220: c137 b43d 9770 a6be 63ae b2bd 00ed 83be
00000230: 2a8f 73be 4e97 9cbd 454f 93be ec47 7ebe
00000240: 13b7 bcbc 47ee e5bd 1a80 4abd ec37 c9bd
00000250: fbf6 46be ed0a abbe 7f8d f53d 4f01 77bd
00000260: e797 043e 3823 c1bd d364 8ebe 304f 56bd
00000270: 69fc 11be 09b4 abbe 41f9 8fbe 6ecd 1fbe
00000280: edb6 27be 48a8 46be 459c cdbe 253b 0ebd
00000290: 9940 4fbe 6479 06be 629d dfbd fc65 84bd
000002a0: 5305 30be 2fed babe 2e62 2c3e f2c6 ecbe
000002b0: fe6a 8e3d b96c a6bd 32fe eabc a995 d13e
000002c0: 165a d1bd 8cc6 34be af1e 8cbe 6a23 babd
000002d0: 6c91 043e d957 50be 330d d1be 3e6f dcbd
000002e0: c14e 063e 1995 02be a6ba ab3c ae2b fd3d
000002f0: 29d4 08be f0e4 133d b724 2e3e 3c9b 5f3e
00000300: 6e11 10bf c591 cf3f 067d d83e d72d 7bbc
00000310: 81c7 fb3d e074 96bf 0396 92c0 0ef1 84bd
00000320: 6b4e e0bd 0995 81c0 df56 1dbe 70d2 c63d
00000330: 0e00 703f 4ff5 f5c0 2c55 51c0 5fb4 11be
00000340: 5348 bfbe c1b9 6bbe 76f8 22be f173 723f
00000350: b8f9 f63e 5a1d bfbf f4ac 5d3f 1e4b 86bf
00000360: 95fb 2fbe 6a66 96be 4e74 9dc0 415a 34bf
00000370: 8143 4f3f 783f a23d 6baf fb3e 8421 e8bf
00000380: 6f6c 5e3e 307b 7a3d 9ff5 aa3f 8e14 b5c0
00000390: 7f44 0c40 4abc 523f c3cd 163f a4c5 36c0
000003a0: f326 6f3f 8a52 06bf 109b 82c0 3614 943e
000003b0: 20fe c8bf e1e4 38bf 2460 6abe da33 7abf
000003c0: 04ca bcc0 aa3e 71bf 9ec8 d7bd a8bf d1bf
000003d0: 3de5 f9bf 834f 19c0 d5b1 cd3f 39c4 cc3e
000003e0: 0e60 89c0 a5f1 34c0 567d 43bd 40f2 bbbe
000003f0: 23fd 933f 588b a3bf d9b5 ae3e 6c82 99c0
-0.5871885 0.37142035 -3.607134 -0.041320678 -0.11532979 2.1770716 -1.9177576 0.69170314
-0.6816179 -7.9498878 -1.985916 0.40269753 1.6521937 -5.170487 0.6666511 -0.102877624
-0.4096018 0.22519398 -0.09410412 -0.43661165 0.46142137 -0.5497609 0.8925825 -0.8440385
-0.17441158 -0.0023079026 -1.2892548 -1.1141614 0.8013978 -0.33473495 0.35969922 -0.34308556
0.5601614 -0.185495 0.8264677 -3.0941556 1.4008775 0.03193998 -4.2803526 -2.1176183
-0.51885206 -0.67828727 0.14700091 -1.6218987 -0.73321974 -8.845125 -0.09495664 0.2947799
-8.355709 2.876891 -0.20861806 -0.43531922 1.04649 -1.2173944 0.70228696 -3.7690861
-4.2333436 0.44179004 0.83216953 0.057516575 -0.33390042 -1.7265846 0.23499505 1.3137958
0.08550719 0.33749783 -1.9248669 -0.6441077 0.18211077 -7.861015 2.930537 0.25116453
0.30385774 1.2459286 -0.4867889 -0.4873 -0.4537362 1.9717264 0.026417285 -0.2241962
-0.20030628 -0.20875223 0.43950778 -0.25559378 0.581295 0.23103718 0.052044373 -3.942826
-0.19203162 -0.29157633 1.9419271 0.41508505 0.907749 -0.27411723 -0.1868037 0.15817969
0.053798784 -0.005509992 0.02733333 -0.52397645 -1.5148683 -2.0785487 0.0262896 0.731509
-0.2688233 0.13371849 -0.36528146 -1.7365948 -2.0610108 -1.1048139 -0.08566634 -0.21152338
2.1131413 -2.208033 0.0822279 -0.343483 -1.5749648 1.4911715 0.05657813 0.7652154
3.6678286 1.2468871 -1.6056329 -1.1665132 0.8365187 1.68757 -0.5561038 0.23208909
0.13691491 0.03182565 0.05359125 -0.079882994 -0.069403544 -0.09104607 -0.28580776 0.2570543
0.08799697 -0.32507774 -0.08724668 -0.25766754 -0.23785082 -0.076460466 -0.28771415 -0.24832124
-0.023036515 -0.112270884 -0.049438573 -0.098251194 -0.19430153 -0.33406773 0.11989879 -0.060303982
0.12948571 -0.094305456 -0.27811298 -0.052321613 -0.14256443 -0.33535793 -0.28119853 -0.15605709
-0.16378374 -0.19400132 -0.40158287 -0.034724373 -0.20239486 -0.13132244 -0.1091869 -0.064647645
-0.17189531 -0.36509082 0.16834328 -0.46245533 0.06954001 -0.08126206 -0.028685663 0.40934494
-0.10222261 -0.17653865 -0.2736716 -0.09088786 0.12946099 -0.20346011 -0.40830383 -0.10763405
0.1311598 -0.12752189 0.020963024 0.12361847 -0.13362183 0.036107004 0.17006193 0.21836561
-0.56276596 1.621636 0.42282885 -0.015330753 0.12293912 -1.1754417 -4.580812 -0.0649129
-0.10952457 -4.049443 -0.1536517 0.097081065 0.93750083 -7.686195 -3.2708235 -0.14228962
-0.37359866 -0.23020078 -0.15915093 0.9470816 0.48237395 -1.4930832 0.8659203 -1.0491674
-0.17185815 -0.2937501 -4.9204473 -0.70450217 0.8096238 0.07922262 0.4915727 -1.8135228
0.21721052 0.061152637 1.3356208 -5.658759 2.1916807 0.82318556 0.5890772 -2.855813
0.93418807 -0.52469695 -4.0814285 0.2892167 -1.5702553 -0.7222424 -0.22888237 -0.9773537
-5.89966 -0.9423624 -0.105363116 -1.6386614 -1.9523083 -2.395478 1.6069895 0.39993456
-4.2929754 -2.8272488 -0.04772695 -0.3670826 1.1561626 -1.2776899 0.34123114 -4.7971706

feature_extractor.layers.0.gin.nn.3.bias f4 [64]
00000000: 2ee9 e53f 3365 463e 02b0 27be ad9e 7640
00000010: 43de 63be 560d 14c0 6987 babd 8b77 8ebf
00000020: 7eef 923d d53a aebf 69f0 42c0 8617 503f
00000030: 6ded cbbf 3b9f aebf 933d 42be bb8c 1d40
00000040: a00c 74c0 0519 b0be dcc7 0640 621a 5dbf
00000050: 203d c5be c939 8fbf 3dfa 04c0 a717 c5bd
00000060: 9d47 a63e 8de5 4dbf 69f5 08bf 9243 01c0
00000070: 0c21 813f afd2 45c0 b37d 293f b8df 26c0
00000080: 8a2b 25bf 8334 97bf 36f4 a8bf 8376 9cbe
00000090: bb95 15c0 9403 f43e 0688 683f 1a2f 88be
000000a0: a799 c4bf 37dd 60be 9fae 27c0 497e c9bf
000000b0: fcfb 99bf fda3 fdbf 7037 f93f 0d52 07be
000000c0: 2ab2 1e3f 7f0a 3a40 2a81 1cc0 2a94 b33d
000000d0: 034c 2fc0 dac5 883f 88a7 aabf a617 14be
000000e0: 9d7a f6be 9200 0f40 2ed4 36be c9b9 01bf
000000f0: 6430 febe 3bb2 d4bf 6fc4 edbe e801 9abd
1.7961786 0.19374542 -0.16375735 3.8534348 -0.22252755 -2.313314 -0.09107859 -1.1130232
0.07174586 -1.3611704 -3.0459235 0.81285894 -1.5931832 -1.3642343 -0.18968801 2.4617145
-3.8132706 -0.34394088 2.1059484 -0.8636838 -0.38523197 -1.118951 -2.0777733 -0.09623652
0.32476512 -0.8042839 -0.53499466 -2.0197492 1.008821 -3.090984 0.66207427 -2.6074047
-0.6451956 -1.18129 -1.3199527 -0.30559167 -2.3372638 0.4765898 0.90832555 -0.26598436
-1.5359391 -0.21959387 -2.620033 -1.5741664 -1.2030025 -1.981567 1.9470043 -0.13214894
0.61990607 2.9068906 -2.4453835 0.087684944 -2.7390144 1.068538 -1.3332376 -0.14462146
-0.48140422 2.2344098 -0.17854378 -0.5067411 -0.49646294 -1.6616892 -0.4643893 -0.07519895

feature_extractor.layers.0.gin.lin.weight f4 [8, 4]
00000000: 47b0 aa3e 43bc 86bf 1de1 92be e7dc 1bbf
00000010: dd0c 43c0 cf66 1140 7b85 853f f78d ae3d
00000020: d0f5 5e3e dd68 adbf d683 8fbe 58b3 f1be
00000030: 4e07 a4be 5609 173d 56cd 0d3e 4ec6 32be
00000040: d35e 3c40 04d3 9ec1 90a8 1c40 8196 57c0
00000050: ddb8 5c3f bd30 e53f 006d 0040 79db 1cbf
00000060: 4b85 e73f a4dd 3ebf 247f 7c3e 36d7 cdbe
00000070: 51d2 ebbd af37 ecbe dc47 74bf e30e 8ebe
0.33337614 -1.0526203 -0.28687373 -0.60883945 -3.04766 2.2719 1.043136 0.085231714
0.21773458 -1.3547627 -0.2803027 -0.4720714 -0.32036823 0.036874138 0.1384786 -0.1745846
2.9432876 -19.853035 2.4477882 -3.368561 0.8621958 1.7905499 2.0066528 -0.6127239
1.8087553 -0.74556947 0.24657875 -0.40203255 -0.11514724 -0.46136233 -0.9542215 -0.27745733

feature_extractor.layers.0.gin.lin.bias f4 [8]
00000000: 20fd bbbe 38b9 8c3f 4de2 96be 4631 313e
00000010: 1011 eb3f cece c63f 69e3 1c3f 69f0 2dbf
-0.36716557 1.0994024 -0.2946953 0.17303953 1.8364582 1.5531862 0.612845 -0.6794496

feature_extractor.layers.1.gin.nn.0.weight f4 [64, 64]
00000000: a591 c13d b966 11bf f8cb b03e 6f03 ac3e
00000010: 2cea 62bd 0180 c4bb 60ed 53bf 89ce 2f3b
00000020: 2b5b 2f3e 68d1 b53e cc3c e4bf f9a9 cebe
00000030: d015 453f 1745 31be 6460 3b3c a1eb b2be
00000040: 48c0 34bf 4195 0e3f b6b5 503e 2c48 8dbc
00000050: a2e7 713d 4122 b1be 8270 c23d 00ed 5b3f
00000060: a7ef 583f f4f1 003f 418b aa3f e04d fe3d
00000070: e208 f73d b21b b23e 2981 d0bd c19c d43e
00000080: fab5 dabe a2d4 9abe 8cce d53d 0aea c93e
00000090: 3f19 33bf 14a7 da3e cab4 a7be 7857 00be
000000a0: 7e02 433d a1a1 663e d379 bb3d 1092 63be
000000b0: 2a11 3dbe 9185 febe f40d 83bf 4935 35be
000000c0: 12e8 08be 32da 65bd 306b 92bd 6f35 cb3e
000000d0: 697c 03bd 7f44 63be 67ec b13e 1c7c be3d
000000e0: ca3d 383e 5a3a 95bf e105 37be 9f88 88bd
000000f0: a7c3 2fbd bfaf 14be 5c1b 743d 31fe 2d3e
00000100: 2d2b 6fbe f18e 25be ccfd d13d 8734 b93e
00000110: 49c3 16be d1a0 913e a2fe afbe dcd9 9c3d
00000120: 31da e2be 292b f4bd 984a 76be 82d1 023e
00000130: 83c6 6a3f 51d0 b7bf 1141 68bf 4216 88be
00000140: 6635 1dbe 537d 55bc 6284 9abe 397f 73be
00000150: 0526 16be e071 00bf 6108 ca3e 10ad 673f
00000160: 803f 8e3f c896 8b3e a5f4 ac3f b2aa 48bd
00000170: de44 10bf 9719 f2bd b6f1 01be 7f76 12bf
00000180: 70c7 21be e64f 90bd aab4 eb3e 4474 c1be
00000190: b01c 0d3c e16d 68bf e298 31be 5344 b73d
000001a0: cda9 00bf 85cc b1bd 8904 ffbe bee2 83be
000001b0: 47a8 fcbd a4a1 82bf 130c 24bf 9d9a 493c
000001c0: a329 233e 1fbb da3d 54e6 9d3e 6ab9 053f
000001d0: 9df9 60bf a469 50bd edfb 053e 11ff 09bf
000001e0: 06c6 02bf 64ff 113e 5bb6 a93e 39a4 d63c
000001f0: 903c 92be a0f4 e03c 35c8 9dbd a669 64be
00000200: 9c76 01c1 816e d03c 18a8 debd 379e 58c0
00000210: d817 c43d 06d0 7fbf 8205 0bc0 aeeb e0bf
00000220: a85e 80bb 1844 3bc0 b0bf d73e eae2 99bf
00000230: 48b0 2fbf e6de 8e3f f899 6c40 4aa1 5a40
00000240: 823e ce3e 7f02 a7bf 1c9e 0640 5420 8b3f
00000250: aae2 39be f764 4e3e 102a 6e3e 96da 9fbf
00000260: 6e76 b23e 01ed 93bf 0473 2d3e 6896 f43d
00000270: 6e1f f7be e335 58be 907f 2cc1 02b8 07c0
00000280: 4fe3 58bf 14bb 883e 715d 513f 11f6 04c0
00000290: 21d0 c7c0 428c 51be 7371 88bf 0193 0c3d
000002a0: bc29 9f3e 6560 46bd 2abc 793e bd8f 263f
000002b0: d63e c23f 5080 a4bf f3d6 b7bf 4785 cc3d
000002c0: 00c7 2abf 379c 8abf 24ec acbf 50ea fb3f
000002d0: 93a9 5bc0 c55c b9c0 a88e 7ebf 3d75 b6bf
000002e0: ae74 59bf 4cfc 25c0 1def 17be c481 de3d
000002f0: cb98 c7bb afee 06c0 6136 2dbe 99d2 7640
00000300: 5c0c 213e aad7 f73f 8495 9f3d 43a2 4d3f
00000310: d153 08be 0d7a bcbf 0109 cd3f d373 47bf
00000320: 442c 48c0 fbd2 b83f 67c5 163e 3498 d23f
00000330: 07ee 893e d237 343f 18f7 ff3f 1329 1540
00000340: 6d16 993f 57ab 5d40 9481 653e ac02 e03f
00000350: 8bf8 063e 6ce9 6cbf 2ba3 0a40 3532 d33e
00000360: 2622 9d3f 9b87 b83f 6557 013f 93bc 0740
00000370: 2b8a d8be 0e50 fdbf 9183 c8bf 1acd 293f
00000380: 8c3a ed3f 6e3b 0e40 ff29 db3f bbdf 8d3f
00000390: f42b 5a3e b8f6 7240 e7f2 26be cec0 8f3e
000003a0: 07ed 84bc 272d afbe 6a8d 3bbf 8059 c0bf
000003b0: 86a7 4f3f c08c b43e 0517 aa3f 89a7 1c3e
000003c0: 99d3 21c0 8889 9fbf afa7 bebe cf54 883e
000003d0: 8b91 d5bf a7c8 2840 e6e8 373e 9117 173f
000003e0: a5ee ccbf bcd9 09c0 79da a0bc 3d79 42be
000003f0: 2c7e 8ebe f91f 163f 1987 9c40 d320 00c1
0.094516076 -0.5679737 0.34530616 0.3359637 -0.055399105 -0.0059967046 -0.8278408 0.0026825985
0.17124622 0.35511327 -1.7831054 -0.40364054 0.7698641 -0.17311512 0.011436556 -0.34945396
-0.706059 0.55696493 0.20381817 -0.017246328 0.059058793 -0.34596446 0.094941154 0.8590851
0.8474068 0.5036919 1.3323747 0.12417197 0.12062241 0.34786755 -0.10180885 0.41525844
-0.42716962 -0.3024035 0.10439786 0.3943637 -0.699604 0.42705595 -0.3275512 -0.12533367
0.0476098 0.22522594 0.091540955 -0.22223687 -0.18463579 -0.49711278 -1.0238633 -0.17696108
-0.13369778 -0.05611629 -0.07149351 0.39689204 -0.03210107 -0.22194098 0.34750673 0.09301016
0.1799232 -1.1658432 -0.17873336 -0.066666834 -0.042911198 -0.14520167 0.059596404 0.16991498
-0.23356314 -0.16167809 0.10253486 0.36172888 -0.14722933 0.28443006 -0.34373957 0.07658741
-0.44307092 -0.11922295 -0.24051893 0.12775233 0.91709155 -1.4360448 -0.90724283 -0.2657948
-0.15352401 -0.013030368 -0.30179125 -0.23779 -0.14662941 -0.5017376 0.39459518 0.9049845
1.1113129 0.27263474 1.351216 -0.048990913 -0.56355083 -0.11821287 -0.12689862 -0.5721206
-0.15798736 -0.070464894 0.46036273 -0.37784016 0.008612797 -0.9079266 -0.17343476 0.08948579
-0.50259095 -0.08681587 -0.49808148 -0.25758928 -0.12336784 -1.0205579 -0.64080924 0.012304929
0.15933852 0.10680222 0.3083979 0.52236044 -0.8788088 -0.050881997 0.13084383 -0.53904825
-0.5108341 0.1425758 0.3314694 0.026201354 -0.2856183 0.027460396 -0.07704202 -0.22305927
-8.091457 0.025443317 -0.10871905 -3.3846567 0.0957486 -0.99926794 -2.1722112 -1.7571924
-0.003917534 -2.926031 0.42138433 -1.2022374 -0.6862836 1.1161773 3.6968975 3.4160943
0.40282065 -1.3047637 2.1034002 1.0869241 -0.18152872 0.20155703 0.23258233 -1.2488582
0.3485598 -1.1556703 0.16938406 0.1194275 -0.48266166 -0.21114306 -10.781143 -2.120606
-0.84721845 0.2670523 0.81783205 -2.0775187 -6.2441564 -0.2046366 -1.0659622 0.03431988
0.31086528 -0.048431773 0.24388185 0.6506308 1.5175426 -1.2851658 -1.4362472 0.09986358
-0.667099 -1.0828923 -1.3509564 1.9680882 -3.432225 -5.7925744 -0.99436426 -1.4254528
-0.84943664 -2.593524 -0.14837308 0.108645946 -0.0060912124 -2.108318 -0.16915275 3.8566039
0.15727371 1.936269 0.0779219 0.80325717 -0.13313223 -1.4724747 1.6018373 -0.7791111
-3.1277018 1.4439386 0.1472374 1.6452699 0.26939413 0.70397675 1.9997282 2.330632
1.1959969 3.4635828 0.22412711 1.7500815 0.13180749 -0.92543674 2.166209 0.41249242
1.2276046 1.4416384 0.5052398 2.1208847 -0.42292914 -1.9790056 -1.5665151 0.66328585
1.8533492 2.2223773 1.7122191 1.1083902 0.2130583 3.7963085 -0.16303597 0.28076786
-0.016226305 -0.34214136 -0.73262656 -1.5027313 0.81114995 0.35263634 1.3288275 0.15298285
-2.52854 -1.2463846 -0.37237307 0.26627204 -1.6685041 2.6372468 0.17959937 0.59020334
-1.6010329 -2.1539145 -0.019635426 -0.18991561 -0.27830637 0.58642536 4.8914914 -8.008014

feature_extractor.layers.1.gin.nn.0.bias f4 [64]
00000000: 6f48 54ba f619 01b9 5d3e bd3b fb11 163c
00000010: e5a8 1a3a 544d 1c3a ffe4 01bc 90ac 21bb
00000020: c86d f33a 124f 40bd 2d38 0bbb 059d bd3c
00000030: ea54 12bd a565 733d a984 2ebb 89b6 9a3d
00000040: c561 81bd fa0a 6739 35d4 1dba db11 25bd
00000050: fb4a 4b3d c051 ca3c bfa4 28bd 511e d3ba
00000060: 80f4 013a 6ceb 1f3d 8825 933d 3c5f ea3a
00000070: 856f 673d 2719 54bd 822c 303a a24b 65ba
00000080: 72d1 2a3c 960e 973c 71bc fb3a de4f 853d
00000090: 164a 23bb dce4 733d 8e2d a2bb 885d 143a
000000a0: d31e 14bc 41dc 4d37 274a 21ba a00c 81b9
000000b0: 7887 f9b9 2778 92b9 993d 77bb 1a43 12bc
000000c0: 31b0 45bb d396 c13b d4bf 2e3c 8718 60bb
000000d0: 3302 a5bb 7d09 913a c969 aaba c78f d5bd
000000e0: 1284 3f3a e069 40bd 5de3 353b c364 21bb
000000f0: f6c7 323d fa16 06bd f516 01bd b7c3 3e3a
-0.00080979516 -0.0001231207 0.0057752565 0.00915956 0.0005899801 0.00059624505 -0.007928132 -0.0024669506
0.0018572146 -0.046950407 -0.00212432 0.023146162 -0.03572551 0.059423108 -0.0026629365 0.07554347
-0.06317476 0.00022033966 -0.0006020696 -0.04030023 0.049632054 0.024697185 -0.04117274 -0.0016107057
0.0004957393 0.039042875 0.07184893 0.0017881165 0.056502838 -0.0517818 0.00067204994 -0.0008746927
0.010425912 0.018439572 0.001920594 0.06509374 -0.0024915985 0.05954443 -0.004949278 0.0005659689
-0.009040552 1.2270234e-05 -0.0006152712 -0.00024614204 -0.00047593913 -0.0002793681 -0.0037725924 -0.008927131
-0.0030164833 0.005907872 0.010665853 -0.0034194307 -0.0050356626 0.001106545 -0.0013001497 -0.10427814
0.0007305752 -0.04697597 0.0027753927 -0.002462671 0.04364773 -0.032736756 -0.031516034 0.00072770886

feature_extractor.layers.1.gin.nn.1.weight f4 [64]
00000000: d350 3d3e 4f2d c13d e112 f13f 9877 cf3f
00000010: 5032 5c3e 1c3b cdbc af87 d23f 39bf 823c
00000020: b139 5e3c eadb 2040 a77f c03f 4c44 c83f
00000030: 31fd 973f 6666 b83f 9d5f 573e 5847 0640
00000040: 7426 1340 7df4 243e 1549 9f3d 7e5f e63f
00000050: 012f dd3f b684 6c3f 3f1c e23f 8838 203e
00000060: 969b 09be 2463 f23f cd88 0740 a4eb 363e
00000070: 0339 0640 5c03 d73f 50d3 843e f68a ab3d
00000080: 4e8c cb3f c060 e23f 7fa7 fd3c 7c5e 1040
00000090: 2d0e f43c 82bc da3f a7a7 0440 e234 f73c
000000a0: 9ffe b63f 55c5 c83d d181 0e40 b4fe ec3f
000000b0: 0a92 ba3f cefc cdbc 210c 843d 3629 c13f
000000c0: 1cbc da3c d738 0b40 d015 1d40 e7a2 b03e
000000d0: 4000 dc3f 6afe 42bd 036c e83c 8e39 ff3f
000000e0: 25fe 54bd b146 f13f 13c0 983d 32b2 35bd
000000f0: 6e77 2840 e4ef ae3f 1515 c03f 9a51 8e3e
0.18487863 0.0943247 1.8833886 1.6208372 0.21503568 -0.0250526 1.6447657 0.015960323
0.013563559 2.5134225 1.5038956 1.5645843 1.1874143 1.440625 0.21032567 2.0981045
2.299222 0.1610889 0.07777611 1.7997892 1.727997 0.9239 1.766487 0.15646565
-0.13438258 1.8936505 2.1177247 0.17863327 2.0972297 1.67979 0.2594247 0.08376114
1.5902193 1.7685776 0.030963657 2.2557669 0.029791916 1.7088778 2.0727327 0.030176584
1.4296454 0.09803263 2.2266734 1.8515229 1.4575818 -0.02514496 0.06447626 1.5090702
0.026701026 2.1753442 2.4544563 0.34499285 1.7187576 -0.04760591 0.028371817 1.9939439
-0.052000184 1.8849698 0.0745851 -0.044359393 2.6322894 1.3666959 1.5006434 0.27796632

feature_extractor.layers.1.gin.nn.1.bias f4 [64]
00000000: f118 9dbf ce41 2abf 86a9 98bf bc83 a6bf
00000010: fe17 88bf 014a 7fbe 8bc9 01c0 f39a d2be
00000020: 7ba7 32bf ea7f f5bf 9805 5cbf 7765 60bf
00000030: 39e1 5dbf ca2c dd3e b2a1 85bf bc77 60bf
00000040: 014c 88bf 0220 61bf 53b4 42bf dbf4 cdbf
00000050: 69d1 82bf 518c c8bf 8d9a a8bf 7565 1dbf
00000060: a711 b5bf 8ca3 96bf 6707 61bf 02b3 4ebf
00000070: ec02 aabf d33c d8bf 3d04 2bbf 4eaa 5cbf
00000080: e3c2 9fbf b89c e3bf 64fb 1abf f8e2 0fbf
00000090: dcd8 acbe f227 3ebf 81a0 2b3f a345 e5be
000000a0: 3ee0 35be dee2 d1bf 2484 48bf 3bd4 a5bf
000000b0: e6c5 17c0 e126 9bbf 6978 65bf 5d02 4abf
000000c0: 27c1 24bf 4dec c3bf b7ce 0ebf c757 04c0
000000d0: 77aa 9f3d 9aff e4be c08c 4abf e6cf 893d
000000e0: 6f6b 42bf 0cf2 15c0 7438 51bf c63a a2bf
000000f0: 8cbd cfbf 98ac efbe f5c7 01c0 7f51 08c0
-1.2273237 -0.6650666 -1.1926734 -1.3008952 -1.0632322 -0.24930574 -2.0279262 -0.41133842
-0.69786805 -1.9179661 -0.85946035 -0.87654823 -0.8667179 0.43198234 -1.043997 -0.876827
-1.0648195 -0.87939465 -0.760564 -1.6090349 -1.0220157 -1.5667821 -1.3172165 -0.61482936
-1.4146012 -1.176866 -0.8790192 -0.80741894 -1.3282142 -1.6893562 -0.6680334 -0.86197364
-1.248135 -1.7782202 -0.6053984 -0.562057 -0.337592 -0.742797 0.67041785 -0.4477969
-0.17761323 -1.6397359 -0.7832663 -1.2955393 -2.3714538 -1.212124 -0.89636856 -0.78909856
-0.6435723 -1.5306488 -0.5578417 -2.0678575 0.077961855 -0.4472626 -0.7912102 0.067291066
-0.7594518 -2.3428984 -0.81726766 -1.2674186 -1.622972 -0.46811366 -2.0278294 -2.1299741

feature_extractor.layers.1.gin.nn.1.running_mean f4 [64]
00000000: 620a 16c1 26ad e3c2 aed2 22c3 6e75 cf43
00000010: f4eb 77c2 22ab e842 3435 b2c3 cac4 d741
00000020: e662 1e41 f7c3 6043 7d4c 34c3 2031 b0c3
00000030: 5a84 f8c3 c08e d4c1 4149 76c2 f20d 8fc3
00000040: 9ca7 24c4 c3e2 1ec2 c16a 24c2 879d c342
00000050: b868 2242 b282 d9c0 d208 10c4 bed1 13c3
00000060: 3a4b 81c3 6313 1a43 a917 8ac3 f8f5 e8c1
00000070: 9ca7 f5c2 37fb acc2 480f 0cc3 da8f aec2
00000080: 04fa b342 b1df 7544 b68e 3fc2 c34b 08c4
00000090: 0455 f4c0 ae18 7c43 9525 2444 5668 72c2
000000a0: 234a b242 9bff 1543 5838 2241 03c2 91c3
000000b0: f85c 2543 3fb5 ca41 ed52 8042 3e25 00c4
000000c0: f255 bac1 f6c3 39c3 8f1f 40c3 1d17 f042
000000d0: 35fc 8542 ab33 28c2 1617 6e42 7ab8 0b43
000000e0: 594b 3b42 72f3 8c43 e237 6b41 76fa 8b42
000000f0: 9a38 41c3 86b2 7c41 0889 a8c3 f296 0943
-9.377535 -113.83818 -162.82297 414.91742 -61.980423 116.33424 -356.41565 26.971088
9.899145 224.76549 -180.29878 -352.3838 -497.034 -26.569702 -61.571537 -286.10895
-658.6189 -39.721447 -41.10425 97.80767 40.602264 -6.797204 -576.1378 -147.8193
-258.5877 154.07573 -276.18484 -29.120102 -122.82736 -86.490654 -140.0597 -87.28096
89.98831 983.4952 -47.889366 -545.1838 -7.635378 252.0964 656.5872 -60.60189
89.1448 149.99846 10.138756 -291.51572 165.36316 25.3385 64.161964 -512.5819
-23.291965 -185.76547 -192.12328 120.04514 66.99259 -42.050457 59.522545 139.72061
46.82358 281.90192 14.701143 69.98918 -193.2211 15.793585 -337.07056 137.58963

feature_extractor.layers.1.gin.nn.1.running_var f4 [64]
00000000: 7a23 e145 3474 c345 4d00 2147 7fdd 3847
00000010: 7192 4d46 8aad 1046 f589 da46 82b0 c543
00000020: 41b4 d644 d2a7 fe46 f612 d146 9bcc 7d47
00000030: 2878 4047 cbd3 a747 e8d4 d145 d7a1 9b47
00000040: 3cd4 da47 b5e4 0046 002e ba45 ec3f 0847
00000050: d116 0c47 5b6f a446 ea06 4347 2c44 d645
00000060: 19cb bc46 29d8 6947 263e 0947 b205 ea45
00000070: 598c 1347 504a a546 f9c4 f245 91c2 8f46
00000080: 44a1 2447 f12c d147 2d7a d045 1ca7 b547
00000090: 7958 a844 8b55 1547 a8c0 e047 4bb1 c645
000000a0: ee87 3d47 e37c 0b47 f3b4 8847 7f1b 0f47
000000b0: c792 a747 9ca9 0147 d45e 2244 0e11 8747
000000c0: b0b8 0b45 1c8e d247 b951 6347 f924 5f47
000000d0: f8d8 a247 d58b 9d44 78ef 1c45 3710 b347
000000e0: 5232 8d45 f5a9 9b46 02ed 8945 6110 2a46
000000f0: 4c2f 1747 0fa0 4d47 b63d b846 41a9 fa46
7204.4346 6254.5254 41216.3 47325.496 13156.61 9259.385 27972.979 395.37897
1717.6329 32595.91 26761.48 64972.605 49272.156 85927.586 6714.6133 79683.68
112040.47 8249.177 5957.75 34879.92 35862.816 21047.678 49926.914 6856.5215
24165.549 59864.16 35134.15 7488.712 37772.348 21157.156 7768.6216 18401.283
42145.266 107097.88 6671.272 93006.22 1346.7648 38229.543 115073.31 6358.1616
48519.93 35708.887 69993.9 36635.496 85797.555 33193.61 649.4817 69154.11
2235.543 107804.22 58193.723 57124.973 83377.94 1260.3698 2510.9668 91680.43
4518.29 19924.979 4413.626 10884.095 38703.297 52640.06 23582.855 32084.627

feature_extractor.layers.1.gin.nn.3.weight f4 [64, 64]
00000000: ee20 a3bd 90f4 863d 9d41 64c0 16f4 f9bd
00000010: a7c1 51bf c598 86be 8cad e63f d479 eebd
00000020: 5e3f 8abd 62a9 8bbf 3a39 8d3f 6a43 453e
00000030: 1f96 863f b0bd 9a3e eb1d d23d 0cb4 8b3f
00000040: bfa0 a63f 2893 9cbe c52e 09bf af23 55c0
00000050: e69e c8bd 9b3f 5abf a508 273e cd09 32bf
00000060: 0346 dbbe 8dbe 00bf 837f 4340 c907 d93d
00000070: 75d2 42bf ccb2 2fc0 aebe be3e 898a 2a3f
00000080: 0756 713e 6fed f9bf 49e3 6c3e 6371 8a3f
00000090: 581e afbe ba79 13c0 41e4 17bf aa02 8cbe
000000a0: e4f1 193f bed5 06bf 58b0 bdbe b406 debf
000000b0: dccd ecbe e79e eabe 1412 5d3e dc9d 4f3f
000000c0: c032 2c3e f8b4 79be d773 59c0 65c5 7bbc
000000d0: dccc b9c0 6233 14be c33d b43d 47a9 04c1
000000e0: e830 cebd 7dd4 8e40 c845 8a3e c5ac 7a3e
000000f0: f065 95bf 4de5 253f 894a 0140 d5ea 713e
00000100: bf48 75be a263 d5bd 954f c4bf 52c3 11bf
00000110: 71fc 3cbf b4c7 a5bd 5140 83c0 423c a33d
00000120: 7a38 3b3e 6a48 f8bf b0b4 5c3f 2f02 b0bf
00000130: 4ffc bdbe 0acb dabf 5d84 47be d9e6 b13d
00000140: 5492 e43f ccbd e5be d7b0 c5bd 66f1 8bbf
00000150: dbcb afbe 4068 903f daf0 da3e d7d7 b9bc
00000160: a7c5 d83f 6ae0 1cbf 3eae 6c3f 3e73 48bc
00000170: 90da 65c0 75b2 15bb e144 7cbd da25 52be
00000180: de56 d2bc 84d9 a5c0 1f52 58be 0e3f afbe
00000190: 432f ae3c 0820 0a3e 64c5 6abf d75a 1ebc
000001a0: 2b47 973e 1de8 babf 2d1f b3bf 61c4 40be
000001b0: 3773 dbbf e072 94be ada0 0cbe 541d 173f
000001c0: 6fd5 cbbd abe6 b0bf 3d67 7ebe 4c71 71bd
000001d0: 5537 de3e 300c da3c 49d8 d5be d1f1 cfbf
000001e0: dd33 de3e 2413 d63e ea2d 8abe ee30 1dbe
000001f0: 90a0 c43f e3c2 803e 78b3 d9bf 5ed9 66bd
00000200: b82d 0d3e 4440 f23d f4f5 50c0 d479 99be
00000210: 9e90 d7bd d775 91bd 7b1d c33e 81a2 d83d
00000220: 3ee5 bbbe c9cd d3bf b1fd 6e3f f22b 8a3f
00000230: d955 273f 0683 3bc0 a63f 723e 605a 7bbf
00000240: 70a5 263f 33bb 73bf e7f3 12bf c899 babe
00000250: 465d 24c0 c656 10bf 5838 833e 5555 573e
00000260: 5510 83bf 4fd6 603f d38f 7940 1baf 7b3d
00000270: 12b3 ce3f 0d8f 5bbf 3ceb 5a3c 158e aebe
00000280: 6307 0040 8ab4 bd3f 19af 55bf 757f 6fc0
00000290: e138 2ebf 345e b33f 81f8 29c0 dd53 e0be
000002a0: 9a03 b5bf d286 873e 16e9 92bf a9c0 f83f
000002b0: c5a2 d23d b8ca f43e 68ce c23d 4026 d93f
000002c0: 6511 dabd 88cf 63bf 5050 85c0 3da2 c23e
000002d0: 78d0 dbbf c705 c2bc 530a dc3d a15d c3c0
000002e0: e843 743e fce3 5e3f 907c 9abe 876f 043e
000002f0: 1ae9 47c0 b5da bbbf 433f bc3e de4a 14be
00000300: 264f 4c3e 998e 5fbe 1e32 9cc0 065f 713f
00000310: 9c13 28bf 5271 e73d e476 1140 e01f 803e
00000320: 7777 b8b9 daae 10c0 c6c0 acbf ea4a 1dbf
00000330: 1e27 d0be 29a0 1940 6d67 a93d c566 863f
00000340: 7258 0d3d 0986 0abf c2e7 43be 402b 5d3e
00000350: 57a0 883f 3c93 3ac0 9d17 7ac0 b88b 3dbe
00000360: e2a8 58bd 490d a4bf 7405 3c40 e0be cabc
00000370: c75e a1c0 6a64 3cc0 e077 8b3e 643d 2fbe
00000380: 763f 71c0 0f24 8e3e 1a23 023d ba7b 17be
00000390: 419a 71be ef6c 4240 256c 61c0 64f8 01bf
000003a0: 24c4 0f3f d7c5 43be 64f1 2bbf e089 09bf
000003b0: d5d8 30bf ead1 95be b18f 8cbd 0d62 f13f
000003c0: 12cb 1a3f e2a2 02c0 3e7c 9b3f 9253 3cbe
000003d0: 65e4 dec0 ce79 c7ba 894b f13d 75e0 52c0
000003e0: 48e9 1cbe 3d86 3b40 b868 093e 3a9b f6bc
000003f0: 20cd a4c0 348a 58c0 4ce2 723f 4275 bb3e
-0.07965265 0.06589615 -3.5665047 -0.12204759 -0.81936115 -0.2628843 1.8021712 -0.116443306
-0.067503676 -1.0911067 1.1033089 0.19263998 1.0514563 0.30222845 0.10259613 1.0914321
1.3017806 -0.3058102 -0.5358699 -3.330303 -0.097959325 -0.85253304 0.16311891 -0.69546205
-0.42826852 -0.5029076 3.0546577 0.10597188 -0.7610238 -2.745288 0.37254852 0.6661764
0.23567973 -1.9525584 0.23133577 1.0815853 -0.34202838 -2.3043046 -0.5933266 -0.27345783
0.6013472 -0.52669895 -0.37048602 -1.7345796 -0.46250808 -0.45824358 0.21588928 0.8110025
0.16816235 -0.2438544 -3.3976953 -0.015366887 -5.8062572 -0.14472726 0.088008426 -8.291327
-0.10067922 4.4634385 0.27006364 0.24479969 -1.1671734 0.6480301 2.0201743 0.23624738
-0.23953532 -0.10419394 -1.5336787 -0.5693866 -0.73822695 -0.08094731 -4.101601 0.07970478
0.18283263 -1.9397099 0.8621321 -1.3750666 -0.3710656 -1.7093213 -0.19484086 0.08686609
1.7857156 -0.44871366 -0.0965287 -1.0933044 -0.34335217 1.1281815 0.4276188 -0.022685928
1.6935319 -0.6127993 0.9245337 -0.012234507 -3.591465 -0.0022841964 -0.061589126 -0.20522252
-0.025676187 -5.182802 -0.21125077 -0.34227794 0.02126277 0.13488781 -0.91707444 -0.009665213
0.29546484 -1.4602085 -1.3993889 -0.18824913 -1.7144536 -0.28993893 -0.13733168 0.59029126
-0.099528186 -1.3820394 -0.2484407 -0.05894594 0.4340159 0.02661714 -0.41766575 -1.6245672
0.43398944 0.41811478 -0.26988155 -0.15350696 1.53615 0.25148687 -1.7007895 -0.05635964
0.13786972 0.11828664 -3.2650118 -0.2997576 -0.105256304 -0.07102554 0.3810843 0.1057787
-0.36698335 -1.6547176 0.9335585 1.0794661 0.6536537 -2.929872 0.23657092 -0.98184776
0.6509619 -0.9520752 -0.57403415 -0.3644545 -2.568193 -0.56382406 0.25628924 0.21028645
-1.0239359 0.8782701 3.8994033 0.06144629 1.6148398 -0.85765153 0.013361748 -0.34092775
2.0004508 1.4820721 -0.834703 -3.7421544 -0.6805554 1.4013124 -2.6557925 -0.43813983
-1.4141724 0.26470047 -1.1477382 1.9433795 0.10284952 0.47810912 0.09512025 1.6964798
-0.10647849 -0.8898854 -4.166054 0.38014403 -1.7172995 -0.023684395 0.10744157 -6.1051793
0.23854029 0.87066627 -0.3017316 0.1293317 -3.1236024 -1.4676119 0.36767015 -0.14481685
0.19952068 -0.2183174 -4.881118 0.9428562 -0.6565492 0.11300911 2.2728815 0.2502432
-0.00035184223 -2.260672 -1.349633 -0.61442435 -0.40654844 2.4004004 0.0827168 1.0500113
0.034508176 -0.5411077 -0.19131377 0.2159853 1.0673932 -2.9152365 -3.9076912 -0.1851033
-0.052895434 -1.2816554 2.9378328 -0.02474922 -5.0428195 -2.9436288 0.27239895 -0.17113262
-3.7694983 0.27761886 0.031771757 -0.14793292 -0.23594 3.0378988 -3.5222256 -0.5076964
0.5615866 -0.19118439 -0.6716521 -0.53726006 -0.6908086 -0.29261714 -0.068633445 1.8858048
0.6046611 -2.0411916 1.2147291 -0.18391255 -6.96538 -0.0015218796 0.11781985 -3.2949498
-0.15323365 2.9300683 0.13418853 -0.030103315 -5.1500397 -3.3834352 0.9487655 0.36612898

feature_extractor.layers.1.gin.nn.3.bias f4 [64]
00000000: de36 08bf f5cb 233f 57f3 8fbe 95bc 7f3f
00000010: 5527 a5bf c356 d53f cc84 32bf e2e2 0ebf
00000020: 64ca 36c0 cd36 b5bf 072e 2cbf b9b2 443e
00000030: 0518 40c0 4701 98bf 4bdd 783e e30b 0dc0
00000040: 2d0e 1f3f 1fad 1abf 6ac5 50be 12a0 c93f
00000050: 32f3 49bf 13d4 1cc0 e495 4abf f43f efbf
00000060: 4e3f 8b3e f8e5 8abe fa96 40bf 4665 013f
00000070: 5e89 1abf ddfe cebf 6e04 b1bf 3ef0 ebbe
00000080: 0779 783f d180 9cbf 6be9 2fbf 7c16 fcbe
00000090: b835 96bf a1ce db3e 49a6 abbf f06d 003f
000000a0: 5f52 2dc0 fc8c 38bf 89bd 4abe 78f1 2ac0
000000b0: 8901 e93f ac89 04c0 e8ed 55bf 23e4 95bf
000000c0: ee77 363f 6583 4d3f c5c5 0ac0 4845 1e3f
000000d0: 9d30 143f ba9d f23d 0bc4 39c0 e71e 80bf
000000e0: d77d dfbe fd8f 013f 16bd 6fbf ce1f dcbe
000000f0: 80a5 e43f ba3a b1bf 60b0 0fbf 4f74 d23f
-0.5320872 0.6398309 -0.2811534 0.9989713 -1.2902628 1.6667103 -0.6973388 -0.55814946
-2.856103 -1.4157349 -0.6725773 0.19208802 -3.001466 -1.187539 0.24303167 -2.2038505
0.62131006 -0.6042041 -0.20387807 1.5751975 -0.7888671 -2.450444 -0.79134965 -1.8691392
0.27196735 -0.27128577 -0.7523037 0.50545156 -0.60365856 -1.6171528 -1.3829477 -0.46081728
0.97059673 -1.2226812 -0.6871554 -0.49235904 -1.1735144 0.42931083 -1.3410121 0.5016775
-2.7081525 -0.72090125 -0.19798864 -2.670988 1.8203593 -2.0709028 -0.8356614 -1.1710247
0.7127675 0.8027862 -2.168321 0.61824465 0.5788668 0.1184649 -2.9025905 -1.0009431
-0.43650696 0.50610334 -0.936479 -0.42993015 1.7863007 -1.3846047 -0.561285 1.6441745

feature_extractor.layers.1.gin.lin.weight f4 [64, 4]
00000000: 6645 103f c470 14c0 a437 4c3e 21e3 85bd
00000010: df9b b7c0 19bc 8040 cea8 f23e f5fb 98bd
00000020: 4211 bfbe 6367 73bf 469b 3bbf ba77 623a
00000030: 6363 72c1 d8a3 4f40 1f0e 8abf a9b2 963d
00000040: 777e 293e 9f48 fc3c fe68 3dbe c682 8cbe
00000050: 06bf 0440 d0e4 16c1 0587 333f 0b51 49c0
00000060: 4b10 9a3f 386f a73f b4ea d13f 50da 50bf
00000070: 941b 57bf 1f5a d8bf ead0 97bf 18d0 fbbf
00000080: 55e3 9d3f 28f7 28c0 cc60 b13c 05a8 07bf
00000090: a3bb 983f 6855 cfc0 7be2 bb3c e477 9fbf
000000a0: 0e4a 833f 66c6 123f 4801 893f 22aa 04be
000000b0: 5d0f 12c0 e8cb 4b3f ab1f 0dbf 440b 90bc
000000c0: 259c f6c0 a851 38bf 11f3 f5c0 aea4 02c1
000000d0: 7805 54c0 9f1f 0ec0 dada 46c0 8c10 47c0
000000e0: ce43 fb40 6cdf 8e3e 8108 ba40 dd48 4abf
000000f0: 7618 50c1 4f9d 7a40 d3a3 e4bf c459 c4bc
00000100: 66e6 003f ecba d23e c8a7 5e3d e770 e7bd
00000110: 051c 9ac0 4b90 f540 b256 a540 7971 8cbe
00000120: 101c 933e 9cc4 e93f 8662 f33f 5c8c 713a
00000130: c3b1 5840 f8f8 f3bf 9354 e73f d733 c7be
00000140: cb5d a93c 541d c5be bef5 e9be cbee 9ebc
00000150: 7da6 96bf c61c ea3f 482f 233f 079c c1be
00000160: 0670 c73f 4710 cabf 2d76 9b3f 1395 cbbf
00000170: 9a23 bec0 14db 8dbf 6fd4 b0c0 c0fa d5c0
00000180: c969 1ac0 aa9d a1c0 8398 3cc0 b7fa 65c0
00000190: 906e cdbe c970 e0be 8d06 0b3f 54a4 19bf
000001a0: 6813 bdc0 8383 ca3d 4bfd c6c0 ebb0 cdc0
000001b0: db78 08c0 43f4 8e40 d83d 6440 101c f7be
000001c0: 2295 1740 c176 a93f 134e 2240 8701 a1bf
000001d0: fdcd 1dbf 52b9 c5c0 d3ee d0bf b969 5bc0
000001e0: eb91 cdbe e1a3 0a40 ee82 a83f c7f3 25bf
000001f0: 6de8 03bf 9b7b 433f 0f21 713f c501 9dbe
00000200: d5c6 593f ec1f aa3e 7162 683e 134d 17be
00000210: 27d6 ef3f ea7a 34c0 b5d0 db3e 3c9b 35c0
00000220: 42b2 c73f a414 00c1 5b0b 573f ed87 1cc0
00000230: 1067 adc0 49a2 b840 d4ee 5f40 2257 2abf
00000240: b2f5 0240 21a9 99c0 024d 3d3f 73f8 28c0
00000250: b422 8d3e 971a d940 e166 c340 cd8e 57bf
00000260: 6143 2b3f 8a8f 98c0 56a5 d53f 653f 01c0
00000270: f0fe 87be 6016 04be 82d0 12bf 55de 43be
00000280: 31f1 853f 7305 10c0 89f3 843d 8249 1abf
00000290: e660 91bd a817 bcbd 97b2 c8be 6732 54be
000002a0: 644c 87c0 9430 a4bf 5c50 83c0 5141 8bc0
000002b0: 6887 ddbe 93fa 5c3f c5b9 683f 999f 33bf
000002c0: ebd9 9f3f 8b5d 37c0 b9ac 333f 4f3d e2bf
000002d0: 27ba da3f 00df adc0 e898 4b3f a74e 31c0
000002e0: 589d 3fc0 dffd b63f 2ae0 213f fc1f a8be
000002f0: 3ce7 f73d 787a 4fbd 34dd 403e c68a e4be
00000300: 2e43 53bf 0c93 883f 7d1b f23e 56fa dfbe
00000310: 6138 d53f 07dc 23c1 a82d 843f 58c8 4cc0
00000320: 08ee 16c0 b4cf a1c0 e334 31c0 040d 5bc0
00000330: 80ad 1e40 39ac d4c0 6d2d a0be 52d5 0bc0
00000340: 4216 cb3f 257e 43c0 1773 d73e efed c9bf
00000350: eb24 fabe 0d7b 0740 e780 a7be a74e a0be
00000360: 3de5 a6c0 1a9f 17c0 293e b9c0 7d92 75c0
00000370: e293 36c0 297b f740 17cb c340 f599 093e
00000380: 5aef cd3c b5f8 9640 a8d5 8b40 9bd0 413f
00000390: efba 8dc0 cd3e 3e40 2a01 b6bf 4796 2b3d
000003a0: 4d8e 5abe d6ba e9be 23a3 53be 1d71 bfbe
000003b0: eb62 a8be 63d0 b13d 6697 b7be 70ae 66be
000003c0: 275b 91bf ccc8 e1bd 32c6 8bbf 4fd9 a9bf
000003d0: d5bd b840 6fb4 d2c0 bba2 16bd ecdb 0fc0
000003e0: 56d9 62bf 1606 ec40 1cee c140 1fef 11bf
000003f0: b6b4 263e 2e49 8b40 4c5c 1b40 5d84 b8bf
0.56355894 -2.3193827 0.199431 -0.06537462 -5.737777 4.022961 0.47394413 -0.07469932
-0.37317854 -0.9507963 -0.73283803 0.00086390565 -15.149264 3.2443752 -1.078556 0.073582955
0.16552149 0.030796347 -0.18497083 -0.27443522 2.0741591 -9.430862 0.701279 -3.1455715
1.2036222 1.3080816 1.6399751 -0.8158312 -0.84026456 -1.6902503 -1.186063 -1.967288
1.2335001 -2.6400852 0.021652602 -0.5299075 1.1932262 -6.4791756 0.022935143 -1.2458463
1.0256975 0.5733398 1.0703516 -0.12955526 -2.2821877 0.7960801 -0.55126446 -0.017583497
-7.7065606 -0.719996 -7.685921 -8.165205 -3.3128338 -2.22068 -3.1071076 -3.110385
7.852027 0.27904832 5.813538 -0.7901743 -13.005972 3.9158514 -1.7862495 -0.023968585
0.5035156 0.41158235 0.054359227 -0.11300831 -4.8159204 7.673864 5.166833 -0.27430323
0.28732347 1.8263125 1.9014442 0.00092143356 3.3858497 -1.9060354 1.8072685 -0.38906738
0.020674607 -0.38498938 -0.456953 -0.019400975 -1.1769558 1.8290031 0.6374402 -0.37814352
1.5581062 -1.5786217 1.2145439 -1.5904869 -5.941846 -1.1082482 -5.525932 -6.686859
-2.4127066 -5.050496 -2.9468086 -3.5934274 -0.40123415 -0.43836048 0.5430687 -0.6001637
-5.908619 0.09888365 -6.2184196 -6.4278464 -2.1323764 4.467317 3.5662746 -0.48263597
2.3684773 1.3239366 2.5360153 -1.2578591 -0.6164244 -6.178872 -1.6322883 -3.4283278
-0.4015039 2.1662524 1.3164957 -0.648251 -0.5152653 0.7636048 0.9419107 -0.30665413
0.8506902 0.3322748 0.22693802 -0.14775495 1.8737229 -2.820002 0.42932668 -2.8375998
1.5601275 -8.005039 0.840017 -2.4457963 -5.418831 5.76981 3.498952 -0.66539204
2.046246 -4.8018956 0.7394563 -2.6401641 0.2756554 6.784496 6.1063085 -0.8420227
0.6689969 -4.767522 1.6691082 -2.0194943 -0.2656169 -0.1289916 -0.5734941 -0.19127782
1.0464231 -2.2503326 0.06491763 -0.60268414 -0.0709856 -0.091841996 -0.39198753 -0.20722352
-4.228075 -1.2827325 -4.1035595 -4.351723 -0.4326737 0.86319846 0.9090846 -0.701654
1.2488378 -2.8650844 0.7018543 -1.767496 1.7088059 -5.4334717 0.7953019 -2.7704256
-2.9939785 1.4296225 0.6323267 -0.32836902 0.12104651 -0.050653905 0.18834382 -0.44637126
-0.82524383 1.0669875 0.47286597 -0.4374568 1.665783 -10.241218 1.0326433 -3.199728
-2.3582783 -5.0566044 -2.768853 -3.4226694 2.4793396 -6.6460233 -0.31284657 -2.184895
1.5866168 -3.0545743 0.42079994 -1.5775737 -0.4885629 2.1168854 -0.32715532 -0.31310007
-5.215483 -2.3690858 -5.788838 -3.837066 -2.852776 7.733784 6.1185412 0.13437636
0.025138546 4.7178597 4.369831 0.7570893 -4.429069 2.972583 -1.4219105 0.041891363
-0.21343346 -0.45650357 -0.206677 -0.37390986 -0.32887968 0.08682325 -0.35857695 -0.2252748
-1.1355942 -0.11024627 -1.091986 -1.3269442 5.773173 -6.5845256 -0.036776286 -2.247798
-0.8861288 7.375743 6.060316 -0.57005495 0.16279873 4.352683 2.4275084 -1.4415394
